…
        "model.compile(loss='categorical_crossentropy',\n",
        "              optimizer='adam',\n",
        "              metrics=['accuracy'])\n",
        "\n",
        "print(model.summary())"
      ],
      "outputs": [
        {
          "output_type": "stream",
          "name": "stdout",
          "text": [
            "Model: \"sequential\"\n",
            "_________________________________________________________________\n",
            "Layer (type)                 Output Shape              Param #   \n",
            "=================================================================\n",
            "conv2d (Conv2D)              (None, 123, 123, 32)      3488      \n",
            "_________________________________________________________________\n",
            "max_pooling2d (MaxPooling2D) (None, 61, 61, 32)        0         \n",
            "_________________________________________________________________\n",
            "conv2d_1 (Conv2D)            (None, 56, 56, 32)        36896     \n",
            "_________________________________________________________________\n",
            "max_pooling2d_1 (MaxPooling2 (None, 28, 28, 32)        0         \n",
            "_________________________________________________________________\n",
            "conv2d_2 (Conv2D)            (None, 23, 23, 32)        36896     \n",
            "_________________________________________________________________\n",
            "max_pooling2d_2 (MaxPooling2 (None, 11, 11, 32)        0         \n",
            "_________________________________________________________________\n",
            "dropout (Dropout)            (None, 11, 11, 32)        0         \n",
            "_________________________________________________________________\n",
            "flatten (Flatten)            (None, 3872)              0         \n",
            "_________________________________________________________________\n",
            "dense (Dense)                (None, 3)                 11619     \n",
            "=================================================================\n",
            "Total params: 88,899\n",
            "Trainable params: 88,899\n",
            "Non-trainable params: 0\n",
            "_________________________________________________________________\n",
            "None\n"
          ]
        }
      ],
      "execution_count": 5,
      "metadata": {
        "tags": []
…
